a2-fall-2025/part2-pytorch/checkpoints/vanillacnn.pth (torch, 237416 bytes, 4 tensors)

conv.weight f4 [32, 3, 7, 7]
000000 c9 40 29 3d 17 3c 56 bb 55 1d 71 3c 11 3a 18 3d
       0.04132155 -0.0032689625 0.014716466 0.03716475
000010 fa a0 82 bd 5e 7e d1 bc 17 47 51 3c c7 dd 1a bc
       -0.0637836 -0.025572952 0.012773297 -0.00945229
000020 30 c9 a7 3d 58 2a 84 ba 5c 50 7b bd 0b 28 9f 3d
       0.0819267 -0.001008342 -0.061355934 0.077713095
000030 67 f8 57 bd 00 f6 74 bb a5 2e 60 bd ac d1 05 3c
       -0.05272713 -0.0037378073 -0.054731984 0.008167665
000040 0d 51 08 3d c4 35 09 3d 2e 2a 20 3c 92 fa 2b bd
       0.03328042 0.03349854 0.009775681 -0.04198701
000050 8a 3d 45 bd cd 71 59 3d 65 79 8b 3d a5 9c 32 3c
       -0.04815439 0.053087045 0.068102635 0.010901605
000060 57 bb 22 bd f2 1a bd bc 6f fe ce bc c2 79 96 bc
       -0.039729442 -0.023084138 -0.025267808 -0.018368606
000070 a5 52 ea bc 29 1f 4f 3d 59 f9 28 3d e7 48 9a 3c
       -0.028603861 0.050566826 0.04125342 0.01883359
000080 e4 00 01 3a df 9d aa bd 2a 24 4d bd 67 59 19 bd
       0.0004921092 -0.08330893 -0.050083317 -0.037438776
000090 8a 5f 30 bd 43 f6 e2 37 bc dc 2f bb 9e bd af bd
       -0.043059863 2.7055974e-05 -0.0026834449 -0.085810885
0000a0 67 07 6a 3c 70 55 aa bd 1a 24 b5 3c 13 88 76 bb
       0.014283991 -0.08317077 0.022111941 -0.0037617728
0000b0 33 ae b8 3a a7 8e 55 bc 32 89 3f bc f2 3d 29 3c
       0.0014090001 -0.013034499 -0.011690425 0.01032971
0000c0 cf f0 37 3d d9 0e 72 3d 80 02 38 bd bc b6 d6 3c
       0.044907387 0.05909619 -0.04492426 0.026210181
0000d0 98 d0 f1 3c ff 85 9c bd 98 f3 8e 3c 76 86 b7 bc
       0.02951841 -0.07642745 0.017450139 -0.022402983
0000e0 fa 58 12 bd 9e 94 60 bc 85 0c 53 3c 52 f0 58 3d
       -0.035729386 -0.013707308 0.012881403 0.052963562
0000f0 04 e0 a8 3d f1 4e 7c 3d be f2 81 3d 06 87 93 3d
       0.082458526 0.061598722 0.063451275 0.07203488
000100 f9 b6 5f 3d 3b f5 9c bd 3b 4a 8a 3d 4e b8 6b 3d
       0.054617856 -0.076639615 0.067524396 0.057548814
000110 4a 6f a9 3d e2 ba 3e 3d af c0 0f 3d a8 1d f1 bc
       0.0827318 0.046564944 0.035095867 -0.029433087
000120 ca 6b 98 bb 13 c6 89 3d b5 ba 01 3d 32 7b 58 bd
       -0.0046515213 0.06727233 0.0316722 -0.052851863
000130 ab 73 06 bc 2f 44 87 bc 2d 3a 8f bd c9 a3 9c bd
       -0.008206288 -0.016512005 -0.06993518 -0.07648427
000140 c2 cf 68 bd 58 1b 6c 3d c3 e4 74 3d d7 7d d0 3c
       -0.05683876 0.057643265 0.059788477 0.02545063
000150 f6 cf 7c 3d 54 b4 3b 3d 5a c6 53 3c c7 d2 98 bd
       0.061721765 0.04582627 0.012925709 -0.074620776
000160 14 95 65 3d c1 d0 78 bd 90 30 6c 3d 1c d2 37 3d
       0.056050375 -0.06074596 0.0576635 0.04487811
000170 44 9d 25 bc c3 72 a4 bd fe 80 51 3c a8 cb 4f bd
       -0.010108296 -0.080297016 0.012787102 -0.05073133
000180 61 17 87 3d 0f c2 d2 bc 25 d3 4b 3d 57 cf 83 3d
       0.06596256 -0.0257273 0.04976191 0.06436031
000190 c7 56 8c bd 53 a2 2e bc 55 e0 53 3d 62 09 b4 3b
       -0.06852489 -0.010658818 0.05172761 0.0054942826
0001a0 7c 4a 0d 3d aa 5b bb 3c e9 0f ee bc ec b3 ef 3c
       0.034494862 0.022870857 -0.02906032 0.029260598
0001b0 99 27 c8 3c e3 51 a0 bc 36 03 5e bd 26 78 9f 3d
       0.024432944 -0.019570297 -0.05420228 0.07786588
0001c0 3c a9 8a bc ff f5 b9 3c 65 64 2e 3d 58 94 66 3d
       -0.0169264 0.022700308 0.042576212 0.056293815
0001d0 1f 88 5d 3d f5 ad 95 3d 69 57 61 3c 83 e3 4d 3c
       0.054084893 0.0730857 0.01375375 0.01256645
0001e0 c4 14 48 3c 0f 9a 9e bd 3d f1 d5 bc a8 43 45 3c
       0.012211982 -0.07744228 -0.026116008 0.012040056
0001f0 d9 ea 09 3c 37 0a 97 bb 5c f2 f1 bc d0 0e e3 3c
       0.008417808 -0.004609372 -0.029534511 0.027717024
000200 f7 df 82 bd dc 24 7a bd 3b b5 8a bd e1 b2 91 3a
       -0.06390374 -0.061070308 -0.06772848 0.0011115932
000210 fe db ac bd 2a 0e 9a bd 51 2a 8f 3c f0 16 5c bc
       -0.08440398 -0.07522233 0.017476233 -0.013433203
000220 16 8b ad bd 62 9c bd 3c c0 f9 70 3d b2 a4 cf bc
       -0.08473794 0.023145858 0.05883193 -0.025347088
000230 b9 a4 72 bc c3 38 ca bc 04 6e 8a bd 6a 9a 96 3d
       -0.014809781 -0.02468527 -0.06759265 0.07353671
000240 bd 28 f5 bb 67 cb 97 3c 6d 9c 8a bd 67 04 31 3d
       -0.007481663 0.018529607 -0.06768117 0.04321709
000250 5b c0 4d bc c2 54 93 3c 64 04 a2 bb 51 2e d3 3c
       -0.012558068 0.017984752 -0.004944371 0.025778921
000260 83 06 a9 ba e9 68 03 3d 90 01 99 bd 58 d4 fe bc
       -0.0012895617 0.032082472 -0.07471001 -0.031107113
000270 a9 f9 36 3d f8 e2 40 3d 51 89 b9 3c 46 27 2d 3d
       0.04467169 0.047091454 0.022648485 0.042273782
000280 57 e6 b2 bb 2d bb f8 bc e1 8c 79 bd 35 6b df 3c
       -0.0054595876 -0.03036269 -0.06092537 0.0272728
000290 db 0e ad 3d be dd 5e 3d 73 3f a4 3d 70 52 35 bc
       0.08450099 0.05441069 0.080199145 -0.011067018
0002a0 80 d5 73 bc 23 3a 91 bd aa 42 8f bd a9 5a 42 3b
       -0.014882445 -0.07091167 -0.06995137 0.0029656088
0002b0 0b ae 9d 3d 02 a5 7f bd 18 0c 86 39 2b 1a 8e bd
       0.07699212 -0.062413223 0.00025567482 -0.06938585
0002c0 f4 d1 2f 3d 4e ed da 3c d0 37 20 bb 2e e6 e0 3b
       0.042924836 0.026724484 -0.002444733 0.006863377
0002d0 c7 15 88 bd 53 7e 88 bd 3d 8b 51 bd d7 7c 6b 3d
       -0.06644779 -0.066647194 -0.05115818 0.057492103
0002e0 d1 93 1e 3d db df a1 3d b2 c1 2a 3d 18 58 0f 3d
       0.038715187 0.07904025 0.04168863 0.034996122
0002f0 e2 59 95 3d df a8 5a 3c a5 73 ab bb b1 40 4c bd
       0.072925344 0.013345926 -0.0052322918 -0.049866382
000300 a2 47 02 bd 03 05 0f bc 4e 0b 86 3d c9 0f 7c bd
       -0.031806596 -0.008729222 0.06545125 -0.06153849
000310 b9 20 79 bd a9 b6 5a bd 5c 66 40 3d bf b7 09 3d
       -0.060822222 -0.053396855 0.046972618 0.0336225
000320 ea 28 96 3d 95 aa a3 bd 7e a8 17 bd df 01 9c 3d
       0.073320225 -0.0799152 -0.03702592 0.076175444
000330 c2 dd 50 3d 59 7f f5 3c db 42 9d 3d 41 41 64 bd
       0.050992735 0.02996795 0.07678767 -0.055726293
000340 ec 36 40 3d 21 ee 2d 3d fe 05 77 bb 1e a0 81 bd
       0.046927378 0.042463426 -0.003769278 -0.06329368
000350 60 33 ab 3d 30 01 bd bc 8e 46 bb 3d 36 fa 8d bc
       0.083594084 -0.023071855 0.091443166 -0.017331224
000360 0d 0b 14 bd e1 d3 8f bd cc cf a6 3d 94 6b 08 3c
       -0.03614335 -0.070228346 0.08145103 0.00832643
000370 8d 0c b3 3d 9a 79 1f bd e7 8d 35 bd 2a d5 95 bd
       0.08742628 -0.038934328 -0.04432478 -0.073160484
000380 0f bc 04 bc f0 8e 4d 3d 84 ab 42 3d eb 0b 50 bc
       -0.008101477 0.050185144 0.04752685 -0.012698154
000390 a4 1a b0 3d 4c b8 aa 3d b1 05 9c 3d a2 8e 85 bb
       0.08598831 0.08335933 0.07618273 -0.004075841
0003a0 cd d1 99 bc aa c1 90 bd 15 9c 9e 3d 7e 31 21 3d
       -0.018776799 -0.070681885 0.07744614 0.03935384
0003b0 9b 0d c4 3b 4f e3 37 bd 7f 6a 63 bd 70 48 8b 3d
       0.005983067 -0.044894513 -0.055521484 0.06800926
0003c0 64 89 8e 3d 75 a2 86 bd 33 8c 69 bd 7f cd 07 3d
       0.06959799 -0.06573955 -0.05701847 0.03315496
0003d0 26 01 28 bd 84 67 73 3d 4f ef 57 3c 7a 28 a4 bd
       -0.04101672 0.059424892 0.013179614 -0.08015533
0003e0 31 c1 7d bd ce 0e 86 3d 48 f6 f2 3b fe 35 68 bd
       -0.06195182 0.065457925 0.007414613 -0.056692116
0003f0 dc df 8c 3d 66 00 be bd ab 93 78 bc 17 fd 7a 3d
       0.06878635 -0.0927742 -0.015171926 0.06127652

conv.bias f4 [32]
000000 39 84 32 bd 51 98 47 bd 91 60 28 3b 48 e3 84 ba
       -0.04358313 -0.048729245 0.0025692324 -0.0010138536
000010 5e bb 8f 3d bd 6e aa 3d e1 d5 e5 bc 8f 82 0b 3d
       0.07018159 0.08321903 -0.028056087 0.034060057
000020 39 f4 1c bd 2f c4 aa bd 91 1e 9c bd 4d da 23 3d
       -0.038318846 -0.083382 -0.076230176 0.04000311
000030 2f 53 65 bd 5d 06 9c 3d 65 5f 68 3d 65 31 2b 3d
       -0.055987533 0.07618401 0.0567316 0.041795153
000040 39 45 02 bc 40 a7 42 bc 03 9b a3 bc 00 79 5a 3b
       -0.007951074 -0.011880696 -0.019971376 0.0033336282
000050 a4 fc ad 3c 90 7f 15 bb 13 d3 3a bd e1 14 93 bd
       0.021238633 -0.002281163 -0.045611452 -0.07181717
000060 51 9b 15 bd af d9 99 3d d1 f1 5e bb 6a 4c 23 3c
       -0.036525074 0.07512223 -0.0034018646 0.009966949
000070 24 b6 84 bc bc fe c6 3c 9a c9 fb bb 33 b1 79 bd
       -0.016200133 0.024291389 -0.007683945 -0.060960006

fc.weight f4 [10, 5408]
000000 ce ad 0c 3c 36 b0 be bb 98 02 d8 ba a9 a1 fa bb
       0.00858636 -0.005819346 -0.0016480265 -0.007648666
000010 6e 1d a1 b9 3f 43 9c 3b 70 3f 69 bc 1b 07 21 bb
       -0.0003073024 0.0047687585 -0.014236316 -0.0024570886
000020 78 ba 3f bc a5 81 27 bb 5c ec aa 3b f8 0b e9 3b
       -0.011702172 -0.0025559452 0.0052161645 0.0071120225
000030 f5 2b 0d 3c 2e 4b cc bb 45 d0 1f 39 e6 56 00 bc
       0.008616437 -0.006234548 0.00015241008 -0.007833218
000040 bc ab 1f bc 5f f2 0e bc 90 59 f2 bb 1f 13 3b bb
       -0.0097455345 -0.008724778 -0.0073959306 -0.0028545333
000050 df 08 a8 ba 13 25 55 bc 24 ff 10 bc 09 5e 48 bb
       -0.0012820027 -0.013009327 -0.008849893 -0.0030573627
000060 27 09 25 3c 99 42 34 3c 88 c9 56 bb e5 1f 93 3a
       0.010072983 0.011002206 -0.003277393 0.0011224715
000070 31 06 31 bc d5 63 dc bb 05 37 25 3c 68 b2 8b bb
       -0.010804699 -0.006725768 0.010083918 -0.004263211
000080 d7 09 4a bc a7 06 02 bc 1d ef 1d 3c 5b 97 f1 bb
       -0.012331448 -0.007936156 0.009639529 -0.0073727793
000090 d9 3b fa 3b 40 99 47 3c f1 cd c5 bb 72 d9 46 bc
       0.007636529 0.012182534 -0.006036513 -0.012136804
0000a0 30 3d 4a 3c 0e 9a 1f 3c e4 b3 cd bb f1 bc 66 3b
       0.01234369 0.009741319 -0.006277548 0.0035207833
0000b0 5b e6 35 bc b5 48 18 bc b1 c4 81 3a a3 ba 63 bc
       -0.011102284 -0.009294678 0.0009900538 -0.013899478
0000c0 8b 4b 3f bb 42 69 46 3c b2 78 2a 3c 90 17 4c bc
       -0.0029189314 0.012110056 0.010404753 -0.01245679
0000d0 4e 0c 12 bc 07 90 22 3c c1 08 cc bb b8 fb 60 3c
       -0.0089140665 0.009922034 -0.0062266295 0.013731889
0000e0 96 b2 92 ba d2 35 62 3c 95 a8 9c 3b 27 0e 08 3c
       -0.0011192139 0.013806777 0.0047808387 0.008304155
0000f0 08 fc 27 bc 90 88 57 3c 43 27 97 bb eb e1 42 3b
       -0.01025296 0.013155118 -0.0046128347 0.0029736708
000100 e0 5a db 3b ea 16 04 3b 95 c6 16 b8 7b f8 94 3c
       0.0066941828 0.002015526 -3.594773e-05 0.018184891
000110 81 b8 df 3b d6 e6 be ba 5e 0f 5c 3c 09 ff 8c 3c
       0.0068274145 -0.0014564644 0.013431398 0.017211454
000120 80 71 c8 3b 1c 48 4f 3c 63 f6 60 3a 26 c9 b0 ba
       0.006117046 0.01265147 0.00085816364 -0.0013487681
000130 65 f5 22 bc b6 a2 16 3c 9c 7a ae bb 4a 0b d6 bb
       -0.009946202 0.009194067 -0.005324675 -0.0065321075
000140 d9 9b 0a 3c 6b db 06 ba c0 98 e4 3b c9 45 67 3c
       0.008460009 -0.000514439 0.006976217 0.014115759
000150 0e ed 8d 39 bf 39 1c bb 13 a6 0b 3c b9 ad bf ba
       0.00027070235 -0.002383813 0.008523482 -0.0014623917
000160 e7 63 e3 bb 74 f6 c4 ba b3 2c 12 bc 87 dc 85 bb
       -0.0069393995 -0.0015027062 -0.00892179 -0.004085127
000170 5c d3 07 bc 9f 47 ce 3b ed 74 df ba 15 79 1a bb
       -0.008290138 0.006295159 -0.0017048396 -0.0023570706
000180 f9 4f ac 3b 4f f1 a7 3b 4c 62 e2 39 ee 9c 93 3c
       0.005258557 0.005125202 0.00043179316 0.018019166
000190 94 82 86 3c 59 fa 38 3c a1 96 97 3b 36 d6 10 3c
       0.016419686 0.011290156 0.0046261107 0.008840134
0001a0 45 62 15 bc 6b b9 2e 3c a5 dc 4e 3c d7 54 8a 3c
       -0.009117668 0.010664324 0.012625848 0.016886158
0001b0 79 7f 3d 3c 77 5f 65 3c 09 a3 5c 3c f3 a1 31 3b
       0.011566036 0.013999811 0.013466605 0.0027104586
0001c0 e5 9f 24 ba 5c 64 49 3c 41 2d 56 3c 7f 1f b3 bb
       -0.00062799297 0.012291994 0.013072313 -0.005466401
0001d0 f1 b8 41 bc 86 eb 97 3b 3d de 7e 3c eb ba 4b 3b
       -0.011823879 0.004636231 0.015555915 0.0031086754
0001e0 70 8b 46 3c 03 c3 6b 3c 2d 90 0e 3a dd 5d c7 ba
       0.012118205 0.014389756 0.0005438354 -0.0015210469
0001f0 4f 42 d8 ba d9 c2 d1 bb 2a cb fe bb a1 e7 fd 3b
       -0.0016499254 -0.0064014015 -0.007775684 0.0077485596
000200 8f fa 66 bb 84 22 55 bc 4b 7c d4 3b e4 da 63 3b
       -0.003524456 -0.013008717 0.0064845434 0.003476792
000210 2b 91 0e bc 36 9f 11 3c 76 12 ae ba 3d 65 3f 3c
       -0.008701603 0.0088880565 -0.0013280648 0.011681852
000220 47 83 2a bc 3d a9 9e bb cc a5 37 3b 0d ad 2c 3b
       -0.0104072755 -0.004841952 0.0028022407 0.0026348263
000230 14 ad 83 bc f1 53 2d 3b ce 24 56 bc ce d8 f0 bb
       -0.016073741 0.0026447738 -0.013070298 -0.007350064
000240 9a 60 08 bc 06 db 6e bc 78 0e 5b bc 66 c1 e5 bb
       -0.008323813 -0.014578586 -0.013370149 -0.0070115803
000250 4c dc 22 bc 25 30 07 3b 38 d0 92 bb eb 15 42 3b
       -0.009940218 0.0020628062 -0.004480388 0.0029615115
000260 5e 8b 6b bc fb 9c ed 3b bf e7 f4 39 81 e8 44 bc
       -0.014376489 0.0072513795 0.0004671197 -0.012018324
000270 14 7e d7 3b ba 5d 81 3b bf 93 ac b9 d7 6b 1c bc
       0.006576309 0.0039479407 -0.00032916476 -0.009547195
000280 00 37 8e 3b 27 f5 16 ba 67 14 f3 ba 1f 05 b6 bb
       0.0043400526 -0.00057585764 -0.0018545509 -0.0055548097
000290 58 1a 87 bc 01 7a 62 3b c5 e6 89 3b 66 4d da bb
       -0.016492054 0.0034557583 0.004208418 -0.0066620586
0002a0 db 03 c2 bb 8c c2 10 3a bc 2f 25 3c db ce 15 bc
       -0.0059208698 0.0005522154 0.010082182 -0.0091435565
0002b0 80 39 d4 3a f5 e7 6e bc 56 a4 cb 3b 1e a9 a6 bb
       0.0016191453 -0.01458167 0.0062146587 -0.0050860783
0002c0 70 5e 61 bc 04 e5 99 ba 05 0c 96 3b 29 c5 38 3c
       -0.013755426 -0.0011741226 0.0045790696 0.011277475
0002d0 78 f7 8f ba 48 94 04 3c f7 3c 5a bb 6e 85 d5 3a
       -0.0010983786 0.008091994 -0.0033300498 0.0016290375
0002e0 6c 3c 31 3a 2c 14 c7 39 ba b3 27 3c c2 df 2a 3c
       0.0006761018 0.00037971267 0.010235721 0.010429325
0002f0 13 7e 7e bb 79 db eb 3b 92 33 12 3a 2c 37 fa bb
       -0.003883247 0.007197794 0.00055771426 -0.0076359715
000300 2a c4 6e bc 12 b1 6d bc 4f a3 21 3b e3 30 1b 3c
       -0.014573136 -0.014507549 0.002466399 0.009472105
000310 5f 02 34 bb 55 6b 9c 3b 29 41 9b 3b d0 2a e1 ba
       -0.0027467234 0.004773537 0.0047379923 -0.0017178897
000320 d3 e7 02 3c 1f 43 01 ba 82 c4 fa 3a 45 21 93 b8
       0.0079898415 -0.00049309613 0.001913205 -7.015703e-05
000330 63 ba 1b 3c 71 bd c0 ba 05 7f 9c 3a 64 82 21 bc
       0.009504887 -0.0014704895 0.001193971 -0.009857748
000340 3c 3f 88 3b 77 ff e0 3b 0a 7f 0c bc 83 d3 23 bb
       0.0041579287 0.0068663913 -0.00857521 -0.0024997897
000350 2e 61 e1 b9 bb f7 c8 3b cf bd 5f ba 29 0f 19 3c
       -0.0004298775 0.0061330474 -0.00085350586 0.009341993
000360 e0 62 38 3c ea c0 4e bc 0b e1 34 bb 63 d5 32 bc
       0.011254042 -0.0126192365 -0.0027599956 -0.010915133
000370 bf c5 f1 3b eb fc 45 bb 79 91 07 bc c4 a7 32 3b
       0.0073783095 -0.0030210565 -0.0082744295 0.002726064
000380 fb f6 4b bc 96 95 c3 bb 6b 1d e8 3a 0f d1 c5 ba
       -0.012449021 -0.00596876 0.0017708963 -0.0015092212
000390 83 10 aa 3a 13 cb 1c 3c c0 1a 7c bb 7a 73 c4 bb
       0.0012974892 0.009569901 -0.0038468093 -0.005995211
0003a0 b2 71 e3 bb d6 10 45 3b 4e 58 98 bb df 73 51 bb
       -0.006941044 0.003006985 -0.0046491986 -0.0031959934
0003b0 c0 5c 3e 3c f8 da 04 bc b8 35 48 bc bb 42 65 3b
       0.011618793 -0.008108847 -0.012219839 0.0034982401
0003c0 88 3a 80 ba d9 da 8e 3b 46 7e 6d 3c 79 74 57 37
       -0.0009783069 0.004359585 0.014495438 1.2842117e-05
0003d0 27 78 9f 3b 55 bf 45 bb cd 52 25 bc f3 34 50 bc
       0.004866618 -0.0030173857 -0.010090542 -0.012707937
0003e0 76 a7 ee 3b 4c d7 3f b9 bc 35 df 3b 01 9d 88 bb
       0.0072831465 -0.00018295384 0.0068118256 -0.004169107
0003f0 7c de b6 ba 0f 1b 11 ba 44 d6 ec bb f1 ce b1 bb
       -0.0013951804 -0.0005535343 -0.007227691 -0.0054262807

fc.bias f4 [10]
000000 f9 85 43 bb 2f b3 1b bc 63 4c 90 3b 78 60 e5 bb
       -0.0029834493 -0.00950317 0.0044036373 -0.0070000254
000010 de ef 87 3c 66 e6 0a 3c 8f dd 97 bb 6c 61 da bb
       0.01659387 0.008477783 -0.004634566 -0.0066644456
000020 2c b7 44 3b 7d 27 fe bc
       0.0030016406 -0.031024689
